evolutionary_algorithm/model/mnist_7_9_classifier_model.pth (torch, 405288 bytes, 4 tensors)

fc1.weight f4 [128, 784]
000000 00 0f 8e bc 3a 72 b6 3c 1c 65 bf bc 9a e6 4b 3c
       -0.017341137 0.022271264 -0.023363642 0.012445116
000010 c6 16 ae 3c eb 89 05 3d 76 9c b1 3c bc 74 a1 3c
       0.021251094 0.032602232 0.021681052 0.019708984
000020 b4 bf 6e 3c 94 e4 95 bc ce 6b 26 bb 85 e1 24 3b
       0.014572073 -0.018297471 -0.0025393846 0.0025158834
000030 43 90 5f bb 20 e1 25 bc c1 cb 16 3d 5a 65 c3 3c
       -0.0034113086 -0.010124475 0.03681541 0.02385204
000040 45 f2 1e 3c 68 03 73 bc bf b3 82 3c d9 7e 0d 3d
       0.009701316 -0.014832355 0.01595485 0.0345448
000050 fc a6 e2 3c 9a e8 df 3c 7c 19 43 3c 3c 98 d0 bc
       0.027667515 0.027332593 0.011907931 -0.025463216
000060 28 64 0d bc 36 83 f1 3c f8 7b aa 3c bb 46 1e 3d
       -0.008629836 0.029481512 0.020811066 0.038641673
000070 b8 73 8a 3c 08 e1 0c bc f2 32 ce bc 31 e8 61 bc
       0.016900882 -0.0085985735 -0.025170777 -0.013788269
000080 93 47 17 3d 40 e5 42 3c 16 63 1a 3c 94 41 b0 bc
       0.036933493 0.011895478 0.009423038 -0.021515645
000090 82 03 d7 3c a2 ab cc bb 1e 73 86 bc 26 9f 37 bc
       0.02624679 -0.006246046 -0.016412314 -0.011207378
0000a0 75 ca 14 3d 3b 40 65 bc e4 14 5b 3c ed 8e 43 bc
       0.03632589 -0.0139923645 0.01337168 -0.011935932
0000b0 ad 55 a4 3b 66 7a 26 3c e5 9f ba ba 60 0a 53 3c
       0.005015096 0.010161018 -0.0014238326 0.012880892
0000c0 0e e8 cc 3b f0 56 97 bc e0 7d 8e bc 5c 6b f3 3c
       0.006253249 -0.018474072 -0.017394006 0.029714279
0000d0 c8 24 aa bc e8 84 ea bb 7e ea 1b bc 7d 21 12 3d
       -0.020769492 -0.007156957 -0.0095163565 0.03567647
0000e0 d8 94 a2 bc 4b 25 37 bb cb 67 8f 3c 7e e0 54 ba
       -0.019846365 -0.0027945812 0.017505547 -0.000812061
0000f0 24 f8 6f bc 3e e0 0c 3c 21 17 24 3d 12 8e d4 3c
       -0.014646564 0.008598385 0.04006112 0.02594665
000100 74 2a a6 bc aa 28 ec bc e2 4f 04 3b 28 23 b2 bc
       -0.020283915 -0.028827984 0.0020189215 -0.02174528
000110 94 98 22 bc 70 6d cc bc ec 94 9c bc 7c 5f ec 3c
       -0.009924073 -0.024954528 -0.01911398 0.028854124
000120 9d 36 5a bc 80 65 a1 bc 8b 73 9f 3c 70 8d 84 3c
       -0.013318685 -0.01970172 0.019464275 0.016180724
000130 46 48 34 3c 38 8b e4 3c 82 4e c5 3c 6a 31 c6 bc
       0.011003559 0.027898416 0.024085287 -0.024193484
000140 5d 42 49 3b 9b 6d 33 bb 66 5b 17 bc f7 45 02 3d
       0.0030709722 -0.0027378562 -0.0092381 0.031805005
000150 bd 75 93 b9 d6 8d b5 3c 04 d0 26 3c 76 1c 0e bc
       -0.00028125747 0.02216236 0.010181431 -0.008673778
000160 70 ad ee bb 4f a7 3e bc b0 93 2d 3c 05 45 1e 3b
       -0.007283859 -0.011636569 0.0105942935 0.0024150026
000170 82 ba 81 3c 64 69 81 bc 4a f5 74 bc 20 b6 22 bc
       0.015836004 -0.015797324 -0.01495106 -0.009931117
000180 ee ec c7 3b a2 87 b0 bc eb 65 95 3c 2e 1a f7 3c
       0.0061012423 -0.02154905 0.018237075 0.03016385
000190 70 23 e8 3c 4f 11 cc 3c fb 60 e3 3c ca 04 ec bc
       0.02833721 0.024910597 0.027756205 -0.028810877
0001a0 a2 66 67 3c 97 50 7e bc da 4d 77 bc 01 3d 14 3d
       0.014123591 -0.015522144 -0.015094245 0.03619099
0001b0 c6 de c9 bb 22 3e c7 3c ad ec 09 3c 02 06 1f bb
       -0.00616059 0.02432162 0.008418244 -0.0024265056
0001c0 a2 6e 03 bc e4 2a a3 bc 46 a5 ba 3c f4 19 9b bb
       -0.008021982 -0.019917913 0.022783887 -0.0047333185
0001d0 b2 83 a3 bc 81 39 26 3d e1 69 c4 bc a3 25 70 3c
       -0.019960258 0.040582184 -0.023976268 0.014657411
0001e0 fd f4 1f 3d a6 38 84 bc 7a 5e 3d 3c 0d 51 c7 bb
       0.039052 -0.016140293 0.0115581695 -0.00608266
0001f0 15 a0 c1 3c 9c af c1 bb 05 61 a4 bb c3 39 30 bc
       0.023635903 -0.005910827 -0.0050164484 -0.010755959
000200 b1 25 12 3d 01 33 0b 3b 05 0f 94 3c d3 3e 0d 3d
       0.035680477 0.0021240117 0.018073568 0.034483742
000210 c3 ab ba 3c 32 02 c5 bb e4 27 22 bc 97 57 0a 3d
       0.02278698 -0.0060122246 -0.009897206 0.03377494
000220 6e c1 0d bc 73 fc 46 bb 3c 0b a9 bc ee 82 e9 3c
       -0.008652074 -0.0030362874 -0.02063524 0.028504815
000230 cf 55 68 bb 6f 1e 2a 3d f8 7e b5 3c 4a 3a 00 3c
       -0.0035451537 0.04153293 0.02215527 0.007826397
000240 5d b1 6c 3b d5 65 47 3c be 4f 4a 3c d6 3b 99 3c
       0.003611646 0.012170275 0.012348114 0.01870529
000250 4d 0a 45 3d d8 4c a7 b9 bf a4 a6 3c 69 42 09 3b
       0.048105527 -0.00031909975 0.020342229 0.0020944125
000260 72 75 0f 3c 9f c3 48 bd e0 85 29 bd c7 bd 86 bd
       0.0087560285 -0.049014684 -0.04138744 -0.06579166
000270 e2 a1 dd bc 76 44 44 bc cf 25 91 bb 23 02 1d bd
       -0.02705473 -0.011979213 -0.004429556 -0.038332116
000280 6f 35 0a bd 65 70 b6 3c 4a 5f 94 bc 5f a1 52 3c
       -0.033742364 0.02227039 -0.018111844 0.012855857
000290 dd d9 07 3d 6e 22 8f bc 22 13 a2 3c 40 98 e8 bb
       0.033166755 -0.017472472 0.019784514 -0.0070982277
0002a0 e3 68 09 3d 92 54 9a 3c d9 ee c4 3c 2c a0 d2 bc
       0.033547293 0.018839154 0.024039673 -0.025711142
0002b0 e4 bf a1 bb 00 a1 24 3d 7e e2 2d 3c 61 77 bd bc
       -0.004936205 0.040192604 0.010613082 -0.023128213
0002c0 c3 1c f6 3b c1 f7 0d bd 77 66 3e 3c 2c ca 35 3d
       0.007510753 -0.034660105 0.011621109 0.04438226
0002d0 de 0f 9c 3d 64 22 91 bc cd 76 12 3c 78 63 62 bd
       0.07620214 -0.017716594 0.008939457 -0.055270642
0002e0 d0 1e 1b bd 2b e3 9d 3c b2 1e 98 3c 13 d2 5e bc
       -0.037871182 0.019273361 0.018569324 -0.01359989
0002f0 91 0f f6 bc 13 51 e0 3b 71 77 b8 3c 66 f6 7e 3c
       -0.03003672 0.0068456023 0.022517892 0.015561676
000300 42 6e 9d bb cc e9 f7 bb 09 1a 17 3d 7c 7f ec bb
       -0.0048044035 -0.0075657126 0.036890063 -0.0072173458
000310 1d e4 54 bc 7c 20 c2 3b 84 14 a2 bb bb bb 92 bc
       -0.01299384 0.0059242826 -0.0049462933 -0.017911782
000320 72 15 7d bc 35 10 42 3d 7f 85 10 3d 67 41 b6 3c
       -0.0154470075 0.047378737 0.03528356 0.022247983
000330 0c eb 4e 3c 0b af 2e 3d db 28 89 3c fb 50 7c 3c
       0.012629282 0.042647403 0.016743114 0.015400167
000340 ae e1 f6 bb 0c 5c 2e bc 90 06 44 bd e1 7d 1e bd
       -0.0075342273 -0.010642063 -0.04785782 -0.038694266
000350 cf 0b 7e 3d 61 de c0 3d f6 12 e0 3d e5 97 9c 3d
       0.06202298 0.094174154 0.109411165 0.07646159
000360 70 45 38 3d 23 32 c1 3c a7 21 78 3d 7a 86 c6 3c
       0.044988096 0.023583477 0.06057897 0.024234045
000370 dd 2f 0e 3c a3 a4 fa bc bb 7c 79 3c ea c8 e8 3c
       0.008678404 -0.030596083 0.015227492 0.028416116
000380 95 f8 42 ba 4e a9 32 3d d6 b7 13 3d 78 13 31 bc
       -0.00074375543 0.043618493 0.03606399 -0.010807864
000390 e5 c3 df 3a 28 27 d8 3b d8 cf e2 3c 7a 00 76 3d
       0.0017071931 0.0065964647 0.027686998 0.06005905
0003a0 3d 14 ac 3c b6 cc 88 3d cf 7b b0 3d e3 87 a9 3d
       0.021005744 0.066796705 0.086173646 0.082778715
0003b0 61 b8 91 3d bc 7b f7 bc 9f 7f 52 3c 60 83 fd 3c
       0.071152456 -0.030210368 0.01284781 0.030946434
0003c0 45 9e bf 3d de a8 d3 3d 25 3b 51 3d a6 ac d5 3c
       0.093563594 0.10334943 0.051081795 0.026083302
0003d0 97 a3 3d 3d 4f f4 71 3d bc 27 ce 3d 78 c3 c3 3b
       0.04629859 0.05907088 0.100661725 0.0059742294
0003e0 31 6b 95 bc 8c 0c e1 bc cf fc 1c 3d ce 7c ec bc
       -0.01823959 -0.027471803 0.038327035 -0.028868105
0003f0 d5 a3 7c bb 59 f7 d7 bc b0 80 0b 3d 4d db db 3c
       -0.00385498 -0.026363062 0.034058273 0.02683797

fc1.bias f4 [128]
000000 fc 78 27 bd e9 14 e0 bc 96 49 c5 3c 37 22 bd 3c
       -0.040886864 -0.02735372 0.02408294 0.023087604
000010 6c eb bb 3c 70 68 b8 3c 87 21 08 bd 4b 0a cd bc
       0.022939406 0.022510737 -0.0332351 -0.025029322
000020 3a f1 25 3b d0 ae 09 bd c7 4b e2 bc 93 60 02 bc
       0.0025320784 -0.03361398 -0.027624024 -0.007957595
000030 b7 ec 00 bd 78 b1 9d bb b3 0a 8c bb de 15 bf 3c
       -0.03147575 -0.0048124157 -0.0042737364 0.023325857
000040 e9 37 81 bc ef 4d 61 3c dd 04 ff 3c c0 6c 9f bc
       -0.01577373 0.013751491 0.031130249 -0.019461036
000050 c1 e3 67 bb e0 ce fd 3a bb 26 27 bd 9b b5 84 3a
       -0.0035383555 0.0019364022 -0.04080842 0.0010124923
000060 82 7c b9 3b fb b5 d8 3c a1 95 05 bd 02 d3 e9 bc
       0.0056605944 0.026453963 -0.0326134 -0.028543
000070 f1 c0 a4 bc 35 fc cc 3c dd 1a 0d bd b4 ec 05 bd
       -0.020111533 0.025022605 -0.034449447 -0.03269644
000080 e8 33 d4 3c 75 e8 ec bc 34 e6 e8 bc 08 15 98 bc
       0.025903657 -0.028919438 -0.028430082 -0.018564716
000090 e7 bb 6d bc 4f cb 0c bd 0c 89 f3 bc 08 ff 0e bd
       -0.014510131 -0.034373578 -0.029728435 -0.034911186
0000a0 92 79 6a bc 68 c7 01 bd 45 46 18 bd 6a 90 04 3d
       -0.014311211 -0.03168431 -0.03717639 0.032364286
0000b0 cd 26 43 3c 7b 3e ef 3c f9 64 23 bd 81 7c ee bc
       0.011911106 0.029204598 -0.039891217 -0.029112102
0000c0 7b 74 1b ba a0 eb 29 bd e9 fd f6 bc 8a 84 a5 3c
       -0.00059301377 -0.041484475 -0.03015037 0.020204801
0000d0 0c 2c ad bc e1 d7 84 bc 9d 0e c2 39 ac bd 2c bb
       -0.021139167 -0.01621622 0.0003701345 -0.002635817
0000e0 13 d4 c2 3c 07 f9 87 bc 3b 18 0a bd a4 82 cf bc
       0.023782765 -0.016598238 -0.033714514 -0.025330849
0000f0 91 8a 94 3c 54 7e bf bc 3e 84 1c bb b9 e4 19 3d
       0.01813248 -0.023375668 -0.0023882533 0.037571643
000100 14 ca c8 3c c1 55 5c 3b d5 f2 b7 3c 78 fa 74 3c
       0.02451042 0.003362045 0.022454659 0.0149522945
000110 be 40 02 3c 9e 03 26 bc c6 1f a7 3c 35 96 e8 3c
       0.007950006 -0.010132698 0.020400893 0.028391937
000120 18 55 30 bc 3f 03 8d bc 01 f4 d1 bc 66 aa 9f bc
       -0.010762475 -0.017213462 -0.025629045 -0.019490432
000130 f7 03 77 bc 1f e5 70 3c f6 d7 15 3d 81 32 26 3c
       -0.015076629 0.014703064 0.03658291 0.010143877
000140 a3 76 bc bc 18 be e0 bb 45 2b b8 bc 63 fb 01 bd
       -0.02300579 -0.0068585984 -0.02248157 -0.03173388
000150 a7 8a 67 bc 43 07 0d bc cd 06 49 3b 73 02 99 bc
       -0.014132178 -0.008607688 0.003067422 -0.018677926
000160 af d3 d3 3c 42 83 60 bc aa d1 cb bb 2b c7 27 bc
       0.025857775 -0.013703169 -0.0062200623 -0.010240356
000170 19 3f 0b 3d 9f e8 d7 3c 05 fd c3 3c b4 a8 58 3c
       0.03399572 0.02635604 0.02392436 0.013223816
000180 d3 61 01 bd 2a cc e6 3b c1 9a 4c bb 2d 3e a9 ba
       -0.031587433 0.007043381 -0.003122017 -0.0012912207
000190 a5 eb 09 bc e0 75 fd ba 0c 2b 36 bc c8 0a 3a 3b
       -0.008417998 -0.0019337498 -0.011118662 0.0028387774
0001a0 c3 38 89 3c 57 4b c9 bc af cb e0 3c 56 e1 88 ba
       0.016750699 -0.024572058 0.027440874 -0.0010443132
0001b0 d3 61 16 3c 54 27 4c bb 21 a3 e6 3c 6d 6f e3 3b
       0.009178597 -0.003115137 0.028153958 0.006940773
0001c0 9c 5e bb bc 8f 40 a7 3c 63 9e 81 bc 91 2a e0 3c
       -0.022872262 0.020416526 -0.015822595 0.027364047
0001d0 92 6a 90 bc f8 15 7e bc ee f1 1a b8 e9 4f 59 3b
       -0.017628942 -0.015508167 -3.6941776e-05 0.0033159202
0001e0 e6 b1 7a bc 60 3b d3 bc 55 0b 14 bc 5c ba 64 bc
       -0.015301203 -0.025785148 -0.009035905 -0.013960447
0001f0 8e 58 42 3a 4e d7 3a 3c 89 13 20 bb 8d 91 24 3d
       0.00074137084 0.011403872 -0.0024425706 0.04017787

fc2.weight f4 [2, 128]
000000 9a f7 1c 3e 98 27 78 b9 c6 bf 9a bd 17 aa f0 bc
       0.15328828 -0.00023665873 -0.07556109 -0.02937798
000010 80 68 4b bc 2e 5f 4e bd cc a4 5a 3d 53 c4 30 3d
       -0.012415051 -0.05038374 0.05337982 0.04315598
000020 16 4a 99 3e b9 b1 57 bd 31 ac 68 3d b2 71 9c 3d
       0.29939336 -0.052659724 0.05680484 0.07638873
000030 fe cb 32 3e 2a 43 59 3d 14 c6 2d 3e cb 6c 8e 3d
       0.1746063 0.05304257 0.16970092 0.06954344
000040 6f 61 01 3e 3d ce a4 bb 91 55 e8 bb 1f 2c 16 be
       0.12634824 -0.0050294683 -0.0070902784 -0.14665268
000050 6b 66 be bd 7f 5a 1a bd 0e df db 3c 0b 8e 2a 3d
       -0.092968784 -0.03768396 0.02683976 0.04163937
000060 93 ae 17 3d 76 9f 50 3d 59 ad 13 3c 7f b1 e3 3d
       0.03703172 0.050933324 0.009013497 0.11117839
000070 d8 1f c9 3c 2d ee c0 bc 39 5b 56 bc 0e b1 f5 3c
       0.024551317 -0.023551071 -0.013083273 0.029991653
000080 df cf 52 3d 33 7d 5a 3c 15 e4 4f 3c c6 13 8c 3d
       0.051467773 0.013335514 0.012688656 0.06839709
000090 89 47 87 bd 12 f9 b7 bc 78 a5 8f bc 94 f1 a7 bc
       -0.06605441 -0.022457633 -0.017534956 -0.020500936
0000a0 56 bf 01 3e cc d3 80 bd a6 a8 67 bd ef 7c 95 3e
       0.12670645 -0.06290397 -0.05655732 0.2919688
0000b0 74 17 3f 3d 0b c3 58 bd 71 b4 85 3e 11 2f 9f bd
       0.046653226 -0.052920382 0.26114228 -0.07772649
0000c0 85 22 3b bc ab 7b 4a 3e 78 fc 0d 3e 6e d4 53 bd
       -0.011421804 0.19773738 0.1386584 -0.05171626
0000d0 ad ab 20 3d 6d da 71 3e 99 25 9b 3d be aa c1 3c
       0.039226223 0.23618479 0.075755306 0.023640987
0000e0 75 df 41 be 39 e6 59 3c fb f7 9e 3b 25 b1 95 bd
       -0.18932898 0.013299518 0.004851339 -0.07309178
0000f0 6f d8 42 3e 6c d0 96 3d 0a 8b 30 bc 8d 9b 98 3c
       0.19027875 0.07363972 -0.010775337 0.01862886
000100 44 7a a3 bd 89 56 0d 3e 62 3c 37 bd 64 75 ce bd
       -0.07982305 0.13802542 -0.04473532 -0.10080984
000110 93 6e 98 3c 72 bf 55 3d 7e 0c 78 bd c0 e2 ee 3c
       0.018607413 0.05218453 -0.06055879 0.029160857
000120 e8 47 55 3c 88 f8 39 bd 3b 99 82 3d f9 64 ac bc
       0.013017632 -0.045403033 0.06376883 -0.021044241
000130 9b e8 8b bc 09 f8 4e bb ba cd 1d bd 02 44 26 3d
       -0.017078688 -0.0031580946 -0.038526274 0.0405922
000140 be 33 4c bc 9a ae 86 3e da 16 a1 3c 0f 2c 2d bd
       -0.012463508 0.26305085 0.019664217 -0.042278346
000150 38 ab a3 3c 97 92 6a bc df ba ee 3d f0 aa 7c bd
       0.019979104 -0.014317176 0.116567366 -0.061686456
000160 86 9a 77 3e 05 9f 86 bd 20 92 32 bd 80 7d f1 3d
       0.2418004 -0.06573299 -0.043596387 0.11791515
000170 eb d2 98 3d ab ca 6f bd 85 21 88 3d a0 e4 0b 3b
       0.074621044 -0.05854289 0.06647018 0.0021345988
000180 b5 e2 ac 3d 64 6e e3 3c 72 d2 48 be b5 b4 0d bd
       0.084416784 0.0277626 -0.19611529 -0.034596164
000190 d9 a8 28 3c 4f b6 ca 3d 7d 9f 0a bd c4 20 d1 3d
       0.010294163 0.09898054 -0.033843506 0.10211328
0001a0 70 4b e3 3d 54 d4 68 bd 29 bf 78 3d c6 b4 fa 3c
       0.11098373 -0.056843117 0.06072918 0.030603778
0001b0 1a 4c c5 bd 70 4c 4f 3d cd de 4a bd 72 27 33 3c
       -0.09633656 0.050610006 -0.049528886 0.010934697
0001c0 6a 96 16 3c b3 23 dd ba 3a fa 58 3d 2c 28 cb 3d
       0.009191135 -0.0016871601 0.05297301 0.099197716
0001d0 63 6c 8c 3d 4f cb a9 bd 76 23 1a bc ef 63 56 3e
       0.068566106 -0.08290731 -0.009407869 0.20936559
0001e0 a0 9b 56 3e 1d 5c 5b bd ba de 97 bd 5c 28 02 3e
       0.20957804 -0.053554643 -0.074155286 0.12710708
0001f0 83 fb e9 3e c6 60 46 3b e8 99 cc bd 21 d5 03 bd
       0.456997 0.0030270084 -0.09990293 -0.032185677
000200 88 4a 89 bd b4 52 77 3d 1a 13 6a 3d 6b 32 9b bd
       -0.06703669 0.060381606 0.057147123 -0.07577976
000210 c6 c6 3a 3d 69 68 6a bd c6 4a a4 bd 19 3e 0f 3d
       0.04559972 -0.05722848 -0.080220744 0.03497133
000220 b4 79 b2 be 58 45 f6 bb 26 78 a3 3d c0 33 c0 3b
       -0.34858477 -0.0075155906 0.07981901 0.005865544
000230 6c e4 04 be f2 1e ea bd 0f 20 de bc 32 91 4f bb
       -0.12977761 -0.114316836 -0.027114896 -0.0031672237
000240 2c 7d c9 bd e0 90 57 bd 36 ad 8e bd 4d fa c1 3d
       -0.09838328 -0.052628398 -0.06966631 0.09471569
000250 96 02 d0 bc 4d 55 9e bd d1 73 78 bd 64 c7 8e bc
       -0.025391858 -0.077311136 -0.060657326 -0.017429061
000260 a6 09 2b 3c 38 e5 3e bd 30 b1 8c 3d 42 19 5f bd
       0.010439312 -0.04660532 0.06869733 -0.054467447
000270 39 61 9b bd b2 92 bb 3b 05 3b d9 bd 4b a6 82 3d
       -0.07586903 0.0057242746 -0.1060696 0.06379374
000280 a4 1e 71 3c 72 87 3e bd 6b ba 83 bb 9f 9f 72 3d
       0.014716778 -0.04651589 -0.0040200255 0.059234258
000290 3c 81 5e bc d1 df 45 bd de 60 24 3d 72 8e f0 3c
       -0.013580617 -0.04830915 0.040131442 0.029364798
0002a0 10 4b 0a be 2f df f7 bb 84 b1 06 3e 34 de 82 be
       -0.13505197 -0.0075644474 0.13153654 -0.25560153
0002b0 2b d8 8a bd ca 15 9d bd ad 60 6c be fe 70 fd 3d
       -0.06779512 -0.076701716 -0.23083754 0.12375067
0002c0 3a bd 2f bd 85 96 4b be f7 de 70 be 98 8c 9f 3d
       -0.04290507 -0.19881637 -0.23522554 0.07790488
0002d0 7c fe 94 3d 74 f0 2b be f9 46 9b bc 8c ec b2 bd
       0.072751015 -0.16790944 -0.01895474 -0.08736524
0002e0 f4 f9 03 3e df 6d ae 3d 04 4b 8f bd a6 53 21 bd
       0.12888318 0.0851705 -0.0699673 -0.039386414
0002f0 68 36 90 be 60 f8 37 3d cf 84 90 bd e1 48 dc 3d
       -0.2816651 0.044914603 -0.07056581 0.10756088
000300 8e a9 0e 3e 83 a4 06 3a fe 1c 12 3d eb 37 6e 3d
       0.13931867 0.00051362085 0.03567218 0.058158796
000310 f9 52 77 bd 9e ca 0a be 60 45 01 bc 68 24 d2 3d
       -0.060381863 -0.13553855 -0.007890075 0.1026085
000320 3e ba 5b bd 68 d1 1c bd eb 48 90 3d d8 2f 93 3d
       -0.05364441 -0.038285643 0.07045158 0.0718686
000330 1f 8b 9f 3c ec 7f ac 3d bf 57 b8 3d 3d b0 a3 3c
       0.019475518 0.08422837 0.09001111 0.019981498
000340 3e 72 54 bd 27 42 5d be bb 10 4e bd f8 cc a1 bd
       -0.051866762 -0.21607266 -0.050308924 -0.07900423
000350 f3 d0 13 3b fc 9e 21 3d e7 55 a6 bd f4 09 f6 3c
       0.0022554963 0.03945826 -0.08121853 0.030034043
000360 1f 72 61 be 89 4e 04 bd fa d3 9f 3d d9 45 bf bd
       -0.2201619 -0.03230146 0.07804103 -0.09339494
000370 2b 40 a3 3d 72 68 92 3d 9a 54 d7 bc 5c 4c a7 3d
       0.079712234 0.071488276 -0.026285458 0.08168861
000380 9e af 2b be 14 2b d9 3c cc a3 7d 3e 9b c8 91 bd
       -0.16766211 0.026509799 0.24769515 -0.071183406
000390 92 a8 80 3a c9 c7 06 bb b1 b0 96 3d fe fb 01 bd
       0.0009815863 -0.0020565859 0.0735792 -0.03173446
0003a0 97 92 b0 bd cd da 05 bc 87 41 88 3d ae e7 9e bd
       -0.0862171 -0.008169842 0.06653123 -0.07759033
0003b0 22 f2 a1 bc 68 b9 a2 3d a0 a2 72 bd cd 1b 03 bd
       -0.019768778 0.0794552 -0.059237123 -0.032008935
0003c0 73 fc 77 3d b3 8a 14 3d b7 82 a2 bd ed b3 03 be
       0.06054349 0.036265086 -0.07935088 -0.12861605
0003d0 f5 e8 86 3d 2f 26 60 3d 24 09 db ba 00 77 d5 bd
       0.06587402 0.054723915 -0.0016711098 -0.10423088
0003e0 7b 31 47 be 56 15 40 3c 5c 0a 98 bd a9 7c 94 bd
       -0.19452469 0.011723837 -0.07423851 -0.072503395
0003f0 9b c5 db be 89 e9 77 bb 56 a5 40 bd ee fb be 3d
       -0.42924199 -0.0037828407 -0.047032677 0.093253955

fc2.bias f4 [2]
000000 b3 34 a2 bd 74 99 6d 3c
       -0.07920208 0.014501918
