evolutionary_algorithm/model/mnist_7_9_classifier_model_with_aug.pth (torch, 405360 bytes, 4 tensors)

fc1.weight f4 [128, 784]
000000 39 ec e5 3c 9b fd d0 3c 53 1c eb bc bd a2 80 bc
       0.028066741 0.025511554 -0.02870003 -0.0157026
000010 89 ba eb 3c fc 4b 30 bc 86 fd e5 bc 4a c1 13 bc
       0.02877547 -0.010760304 -0.028074991 -0.009018252
000020 4b 18 01 3d b0 0c 85 3c 02 65 ba bb 1d d8 c3 bc
       0.03151731 0.016241401 -0.0056883106 -0.023906762
000030 33 b4 eb bc df 15 a9 3c 87 c2 aa 3c f1 dc 1c 3d
       -0.02877245 0.020640312 0.020844711 0.038296644
000040 db 4d c4 bc 85 b0 da bb b6 14 b9 bc f6 ea 82 bc
       -0.023962906 -0.006673875 -0.022592884 -0.015981179
000050 b1 65 e2 3c 3d 8e 9d bc df f2 e0 3c 02 35 7d bb
       0.02763638 -0.019232864 0.02745956 -0.0038636331
000060 68 e0 61 3c 02 b1 94 bb 64 8d 83 bc 5f 52 d1 bc
       0.013786413 -0.0045377025 -0.016058631 -0.025551973
000070 bb 8e dd 3c 8a 2e 5a bc 67 f7 e2 3c e9 ba f0 3c
       0.027045598 -0.01331676 0.027705861 0.029386
000080 5d 72 b1 bc dc 71 f0 bc 78 af 9b 3b 1a b1 8c 3c
       -0.021660978 -0.029351167 0.004751142 0.017174292
000090 78 3c dd bc d9 f7 e0 3c ed 84 eb 3c 4d b1 26 3d
       -0.027006373 0.027461933 0.028749907 0.04069643
0000a0 40 ad 98 3b 86 e5 d9 bc 38 39 a1 3b ed 81 b5 3c
       0.004659325 -0.026598703 0.004920151 0.02215668
0000b0 3d 49 d8 bc 88 3c 69 bc 00 c7 09 3d 1e 7c 67 bc
       -0.02640211 -0.014235623 0.033637047 -0.014128713
0000c0 9d 27 8d bc bb d0 d7 bc e8 ff dc bc 47 94 9c 3c
       -0.017230803 -0.026344648 -0.026977494 0.019113673
0000d0 24 8e 01 3d d4 22 09 3d 29 4a 23 3d 98 7c fb 3b
       0.031629696 0.03348048 0.039865647 0.007674765
0000e0 6b 71 9e bc ed 2f bb bc 88 35 aa 3a 80 d6 78 3b
       -0.019341191 -0.022850001 0.0012985924 0.003796965
0000f0 a2 69 59 bc 8b 1f cc 3c e1 dc 07 3c 96 00 b4 bc
       -0.013269814 0.024917385 0.008292408 -0.021972936
000100 f7 cc 03 3d fe 8f 8c 3c 70 b4 40 bc 7d e3 18 3d
       0.03217789 0.017158505 -0.01176177 0.037326325
000110 dc ed 38 3c 28 c2 09 3d 54 22 85 bc e5 96 07 3d
       0.011287179 0.033632427 -0.01625172 0.03310289
000120 2f 2f b5 bc 04 00 c6 bc b1 31 d6 bc 6c 7f 9a 3c
       -0.022117225 -0.02416993 -0.026146742 0.018859588
000130 17 44 02 3d 2f 36 99 bc e9 84 a4 3c 5d a7 1a 3d
       0.031803217 -0.018702595 0.020082908 0.037757266
000140 8f 5a ca bc 3b 7d de 3c 83 6d a8 3c 2f d8 f5 3c
       -0.024701385 0.027159324 0.020560032 0.030010311
000150 41 a3 1a 3d 38 8b 1e 3c 7e 5b dd bc 19 bb e4 3c
       0.037753347 0.009676747 -0.027021166 0.027921246
000160 54 bc bf bc 94 a5 6e 3c 6a d9 b5 b8 e9 33 15 3d
       -0.023405232 0.014565844 -8.671249e-05 0.03642646
000170 02 47 8b 3b 0f 55 d7 3c 0a 56 28 3a f9 78 14 3d
       0.004250408 0.026285676 0.0006421512 0.03624818
000180 92 46 98 3c 34 1d 81 3c f1 5a b0 bc c9 cc e3 3c
       0.018588338 0.015760995 -0.02152774 0.02780761
000190 79 3f 4e ba c6 a8 1e bc e2 4b 45 bc fb 5b ae 3c
       -0.00078677345 -0.009683793 -0.012042018 0.021284094
0001a0 6b 7d d5 bc 5d 96 af bc 87 9e f6 3c cb 13 da 3c
       -0.02606078 -0.021434003 0.030104889 0.026620766
0001b0 8c 01 05 3c ef 89 ad bc f4 b9 6e 3c a7 83 d2 3c
       0.008118045 -0.021183936 0.014570702 0.025697542
0001c0 02 56 13 bc 49 5f 11 3c 00 65 1f 3b 80 f6 c3 3b
       -0.008992674 0.008872815 0.0024321675 0.005980313
0001d0 e5 3b 25 3d 9b 96 d9 3c 21 d9 10 3d d1 d5 bd 3c
       0.040340323 0.026561072 0.03536332 0.023173245
0001e0 7e 79 63 bb 15 eb f2 3c 4f 3f a9 3c 75 d0 15 3d
       -0.0034709866 0.029653111 0.02066007 0.036575753
0001f0 56 f0 bb bc ad d7 46 b9 31 70 21 3d c6 0f f0 3a
       -0.02294175 -0.00018963097 0.039413635 0.0018315248
000200 43 b9 c9 ba 18 5a 5a bc 3d d7 9c bc 34 79 0a 3d
       -0.0015390295 -0.013327144 -0.019145602 0.033806995
000210 42 bf 0b 3d 06 df 09 3d 54 0f 35 bc c2 6e 58 bc
       0.034117945 0.033659957 -0.011051018 -0.0132100005
000220 60 00 f0 3b e0 99 04 3d 66 61 e7 bc c6 46 c5 bc
       0.0073242635 0.03237331 -0.028244685 -0.024081599
000230 6f a5 79 bb ec b4 99 3c bd fa 8f bc 9b 34 f5 bc
       -0.003809299 0.018763028 -0.017575616 -0.02993231
000240 b1 47 ab bc 8c f7 0a 3d b1 1d 00 3b 4c 9e 38 3c
       -0.020908209 0.033927485 0.0019548947 0.01126821
000250 3f 36 1e 3d 09 f3 0f 3c 65 95 1e 3d b1 86 ee 3c
       0.03862595 0.008785971 0.038716692 0.02911696
000260 12 fa d1 bc 96 34 09 bb f7 6f b9 3c 6a 83 db bc
       -0.025631938 -0.0020935885 0.022636397 -0.026796062
000270 a4 dc 67 3c 21 7c 16 3d a5 fd de 3c 94 69 7c bb
       0.014151726 0.036739472 0.027220557 -0.0038515078
000280 32 ab c8 3c 02 20 ad bc ab dd ce 3c a9 1f cc bc
       0.024495695 -0.021133427 0.025252184 -0.02491744
000290 8d f1 fb 3c 4e 1e 40 bb 84 0c 23 3c 91 07 a6 3c
       0.030754829 -0.0029314938 0.009951714 0.02026728
0002a0 d6 42 f0 b9 7d fb bf 3c 91 04 d6 3c b8 96 97 3c
       -0.00045826164 0.023435349 0.026125224 0.018504485
0002b0 fa b5 0b 3d 50 d7 0a 3d a1 92 26 3d 57 e2 f4 3c
       0.034109093 0.033896744 0.04066718 0.029893083
0002c0 a7 e4 e1 bc f9 a8 e3 3b f2 2c 21 3b 44 71 b8 bc
       -0.02757485 0.0069476333 0.002459344 -0.022514947
0002d0 a2 5b d5 bc af ac fd bb 00 b1 e1 bc ab b0 42 bc
       -0.02604467 -0.0077415328 -0.02755022 -0.011882941
0002e0 64 bc c6 3b 62 2f 0a bd 9b ab 4e bb bf b2 ec bc
       0.0060649384 -0.033736594 -0.003153539 -0.028893827
0002f0 da 1b fc 3a a6 9c 84 39 af 8d fd 3c 92 00 1f 3d
       0.0019234375 0.00025293714 0.030951349 0.038818903
000300 34 d7 62 3c 05 48 15 3c 57 e7 53 bc 7e 79 94 38
       0.013845254 0.009111409 -0.012933574 7.0798196e-05
000310 a2 7c 21 bc 0d 61 8a bc 98 34 17 bc 81 94 7f bc
       -0.009856375 -0.01689198 -0.009228848 -0.015599371
000320 4b b7 c2 3c 2c 80 9a 3c 6f dc ba 3c bf 1c 1b 3d
       0.023769042 0.018859945 0.022810189 0.03786921
000330 e1 10 a8 3c 5f 83 c6 bc dc f8 9f 3c ce f1 d3 bc
       0.020515861 -0.024232564 0.019527845 -0.025872137
000340 ce a7 09 bc 9b 7c b0 bc f9 a2 a5 3c bb 46 b8 3c
       -0.008401824 -0.021543792 0.020219313 0.022494664
000350 ff 22 95 bc 33 9f 9a 3c 8c ef 9d bb 2c 4b c8 3c
       -0.018205164 0.01887474 -0.004819816 0.024449907
000360 ec 40 29 bb e8 13 71 bc cc bf ed 3c f9 3b e3 3c
       -0.002582605 -0.014714219 0.02902212 0.027738558
000370 12 6e e5 3c 80 e6 62 3b 10 14 e9 3c a1 73 9d bc
       0.028006587 0.0034622252 0.02845195 -0.019220175
000380 1d 02 16 3c 53 c6 1a 3d 64 d1 98 3c 5f be 85 b9
       0.009155777 0.037786793 0.018654533 -0.00025509574
000390 0f 9b c4 bc d8 7d ed bb 5a 38 62 3c 2b 4d 83 3c
       -0.023999719 -0.0072476678 0.013807381 0.016028007
0003a0 7d db 7a bc f2 42 f5 39 4f c5 37 bc 14 44 b1 3a
       -0.015311119 0.0004677992 -0.011216476 0.0013524317
0003b0 c6 5c 69 bc 97 d5 0a 3b 9c a9 a6 3b c9 a1 72 3b
       -0.01424331 0.0021184438 0.005086137 0.00370227
0003c0 72 ff fd bb 82 2b d5 3b f3 c4 bd bc 41 81 d8 3c
       -0.0077513987 0.0065054307 -0.023165202 0.02642882
0003d0 cd 07 d6 3c d6 ad b3 bc e7 c1 ef bc 0e 21 5e 3c
       0.026126767 -0.021933477 -0.029267265 0.013557686
0003e0 82 49 19 3d a1 05 c2 bc e1 f9 c0 3c 1c 39 14 b8
       0.03742362 -0.023684325 0.023556652 -3.5339137e-05
0003f0 51 16 c6 3c 9d 69 0d 3b e1 21 1a 3d cb 6f ca 3c
       0.024180563 0.0021577843 0.037629966 0.02471151

fc1.bias f4 [128]
000000 45 0e 1b bd 9f ab 87 bc 3f 58 8c bc 81 42 a6 3c
       -0.037855405 -0.016561328 -0.017131923 0.020295383
000010 d1 9c 53 bc 29 9c ed 3c 2e 30 8a bc 22 9c 3f 3c
       -0.012915806 0.029005127 -0.016868677 0.01169494
000020 83 23 e2 bc ec ce 58 bc 2f ea 09 bd 73 9d 1c 3d
       -0.027604824 -0.013232928 -0.0336706 0.038236093
000030 fc ff 0a 38 2e 97 d9 bc 78 c3 a4 3b bc 9e b5 bc
       3.3140168e-05 -0.026561346 0.0050281845 -0.022170417
000040 a7 69 3f bd 1b cc 0d bd 89 32 e9 ba c5 a0 2f bb
       -0.046731617 -0.03461848 -0.001779155 -0.0026798707
000050 04 f0 e0 bc 23 55 6c 3c 0a 2d 74 3c 64 9e 5d 3c
       -0.027458198 0.014424595 0.014903316 0.013526533
000060 98 7a e0 3c d5 2b 9c bc 30 bd c8 bc 88 f6 de 3c
       0.027402207 -0.01906387 -0.024504274 0.027217165
000070 c2 b1 dc bc e1 07 01 3c 1e 77 ce ba 9e d0 c3 bc
       -0.02694023 0.007875414 -0.0015752052 -0.023903187
000080 5d 64 89 3b 7f 19 49 bd 5b 7b 0b 3d 28 f2 f3 bc
       0.0041928724 -0.04909658 0.034053188 -0.029778555
000090 55 22 15 bd ff a5 a5 bc 17 af 09 bc 30 c0 01 3c
       -0.036409695 -0.020220755 -0.008403561 0.007919356
0000a0 2a f8 91 3c 56 d7 d6 3c 60 37 cf bb 09 ab ae 3c
       0.01781853 0.026225727 -0.00632374 0.02132179
0000b0 74 97 48 bc fb 7d 9d bb f5 a7 d6 bc ee ef a1 3b
       -0.0122431405 -0.004806278 -0.026203135 0.004941932
0000c0 53 71 1c bb b9 2f 35 bc 86 64 0f bc 42 e5 40 3c
       -0.0023871257 -0.011058741 -0.008751994 0.011773409
0000d0 a7 68 c7 bc ad b4 f6 bc ea a3 1e bd 96 ad 1d 3c
       -0.024341894 -0.03011545 -0.03873054 0.009623906
0000e0 bd 19 ad bc 88 f9 7f 3c 1c c7 78 3c 68 2a 11 3c
       -0.021130437 0.015623458 0.01518419 0.008860208
0000f0 66 58 db bc 9f a9 df 3c 84 f1 73 bc db d7 c6 bc
       -0.02677555 0.027302561 -0.014889125 -0.02427285
000100 3f e8 bc 3c c4 a0 c4 3b fb 3a 0a 3d cf fb b2 3c
       0.023059962 0.00600061 0.033747654 0.021848587
000110 f7 e7 97 3c ed 35 1f 3c 43 30 ef 39 79 3b 89 3c
       0.018543227 0.009717447 0.0004562159 0.016751992
000120 33 4f dc 3c 8e 72 d9 3b 2e 4a 3f bb b8 78 1f bd
       0.026893234 0.0066359704 -0.0029188502 -0.038933486
000130 52 3f c2 bc 33 ee 2a 3c 62 d2 2f bd 24 97 17 ba
       -0.023711834 0.010432768 -0.042925246 -0.00057827146
000140 68 96 4e 3c c2 6e a2 3c 02 90 a4 3c ae 47 94 3b
       0.012609102 0.019828204 0.0200882 0.0045251464
000150 21 a8 1c 3b c3 16 86 3c c1 2a 14 bd 64 68 24 ba
       0.0023903924 0.016368276 -0.036173586 -0.0006271659
000160 61 9c be 3b 80 81 a1 bb f5 b2 c9 bc 9a 63 79 3c
       0.0058169817 -0.0049287677 -0.024621466 0.015221501
000170 5e 6f d8 bc 6e 10 89 3c 18 74 0b bb e9 e3 5e 3c
       -0.026420292 0.016731467 -0.0021278914 0.013604143
000180 bc 6f fb 3c f6 86 3a 3a d7 6f 34 bb a1 14 e1 3b
       0.030692928 0.00071154477 -0.0027532482 0.0068689142
000190 c4 6d 18 bd e1 9f 13 bd 6a 83 95 bb 31 af 04 3c
       -0.037214056 -0.036041144 -0.004562785 0.0080984095
0001a0 6f ce 35 3c ca 50 91 3c d9 4d bd bc 75 b0 06 3c
       0.011096581 0.017738719 -0.02310841 0.008220782
0001b0 0f a1 dc 3c c3 aa 90 ba 66 50 11 bd 10 19 bf bc
       0.026932267 -0.0011037219 -0.035477065 -0.02332738
0001c0 0d 3a 85 3c 6f 08 e8 bb 08 f0 b1 3c 59 61 6e bb
       0.016263032 -0.0070810835 0.021720901 -0.0036373942
0001d0 f6 3d 2c 3b 53 3e e4 ba 37 25 93 3c 0e 72 e5 bc
       0.0026282049 -0.0017413594 0.017962081 -0.028008487
0001e0 d1 fe 82 3b db a6 0f bc 79 b0 12 bc 46 f4 e9 bc
       0.0039976616 -0.008767809 -0.008953207 -0.028558861
0001f0 5b 76 fe bc 25 3d b7 3c 02 eb 54 bb ee 97 ba bc
       -0.031062296 0.022368023 -0.0032488708 -0.022777524

fc2.weight f4 [2, 128]
000000 16 fd 43 3d cd 0c 09 bd 41 ae 27 3e da e0 ff 3c
       0.047848783 -0.033459473 0.16375066 0.031235147
000010 fe 63 f8 bc 60 c5 42 bc 63 dc 9e 3d f0 5e 88 3d
       -0.030321117 -0.011887878 0.07756879 0.06658733
000020 08 c8 6e 3c 68 78 b6 3b 03 e9 91 bd bb 65 78 be
       0.014574058 0.0055685528 -0.071245216 -0.24257557
000030 4c 30 88 3d 6b c4 90 3c f0 41 f2 bb ed 50 82 3d
       0.06649837 0.017671784 -0.0073931143 0.063630916
000040 14 8c 73 be aa fe 95 3c 39 3c 21 3e 94 f5 ad bb
       -0.23783904 0.01830991 0.1574563 -0.005308816
000050 d1 a1 14 3b d2 de 08 3d 59 84 35 3d 7f 63 8d 3d
       0.0022679458 0.033415623 0.04431567 0.06903743
000060 be 12 8c bb ba 1f 18 bb 77 75 ab 3d d9 4b 9e 3c
       -0.004274695 -0.002321227 0.08372014 0.019323276
000070 70 5a 13 3e b7 b2 9d 3d 36 63 86 3e 15 16 3a 3e
       0.14389968 0.07700103 0.26247567 0.18172486
000080 37 4a 12 3e b7 52 87 3e e5 86 78 bd 1a dc af bd
       0.14286123 0.26430294 -0.06067552 -0.08586903
000090 13 63 61 bc db b1 3f 3e 00 63 00 bd b8 7b 44 3c
       -0.013756531 0.1872019 -0.031344414 0.0119923875
0000a0 81 3c 69 bc 44 a6 32 3d 97 db 35 bd ce 88 0e be
       -0.014235617 0.043615595 -0.04439887 -0.13919374
0000b0 7e ce 9f bc a6 ae df bc 89 aa d3 3c 18 e8 28 3d
       -0.019507643 -0.027304959 0.025838153 0.041236967
0000c0 83 0b 2d 3d 72 93 f7 3d cc d3 84 bd 76 06 60 3e
       0.042247307 0.1208867 -0.064857095 0.21877465
0000d0 de 44 42 3e 91 7a 4e bc 2e 5d 46 3e 7b c9 aa 3b
       0.18971583 -0.012602464 0.19371483 0.0052120066
0000e0 b8 29 a6 3c db cf 93 3d b4 59 89 3e 58 9d bf 3d
       0.020283565 0.0721738 0.2682625 0.09356183
0000f0 5c 01 19 3e 74 86 e3 3d ca f9 43 3e 43 2e 57 bd
       0.14941925 0.11109629 0.19138256 -0.052534353
000100 3a 68 5e 3d 33 5a 7a bd 4a 77 3d 3d 7a 8b 17 3e
       0.054298617 -0.061121177 0.04625634 0.147993
000110 db be 5a bc 5a 1f 37 bd 91 a2 fb 3d f2 99 59 bd
       -0.013351168 -0.044707634 0.122868665 -0.05312533
000120 2c 44 8a be 71 e4 97 3d 2b 84 2d 3e 01 7b 0f 3e
       -0.27005136 0.074166186 0.1694495 0.14011766
000130 8c c9 51 3c b6 ae 43 3d 66 5f 16 bd cc 74 51 3c
       0.0128044 0.04777404 -0.036712073 0.012784194
000140 f0 f8 84 bd 3c cd 28 3c 8a 32 ac 3d 8e 27 b2 3c
       -0.064927936 0.010302838 0.08408077 0.021747377
000150 eb 4a b5 3d fd c3 d2 3d e0 74 83 3d 9c 78 33 3e
       0.0885218 0.10291288 0.064187765 0.17526478
000160 0a a5 89 bc 0e 4b 85 3d 3b 0a 15 3e 58 b0 b7 bc
       -0.01680233 0.06508456 0.14554684 -0.022422954
000170 0f d0 04 bd 92 7a ca 3d 6c 96 30 3d ff 9b 8b bd
       -0.032424983 0.0988666 0.043112203 -0.06816863
000180 30 5a 1c 3d 6f 40 e3 3c 52 c8 60 bb 2c 7e 7e bc
       0.038171947 0.027740685 -0.0034299088 -0.015533011
000190 bd 37 f2 3d 42 ee d0 3c 16 e1 6b bc d4 31 1d 3e
       0.118270375 0.025504235 -0.014396926 0.15351039
0001a0 a8 64 cb 3c 6d 66 7d be 33 f5 31 3e 54 16 a3 bd
       0.02482827 -0.24746104 0.17378692 -0.07963243
0001b0 4a 5b d4 3c 5d 5f 4f bd 9f 5b 80 bd fc de 76 bd
       0.025922436 -0.050628055 -0.06267475 -0.06027125
0001c0 c1 1d 6d bd f4 e7 03 be cf 5d a8 3d 3d 34 2f 3d
       -0.057889704 -0.12881452 0.082210176 0.042774428
0001d0 f3 81 37 3d 1d 93 d5 bd fb 9a 0d 3e 73 37 66 3d
       0.044801664 -0.1042845 0.13828652 0.056205224
0001e0 4b e9 c0 bd eb 29 3f 3d 3b 43 24 3e 50 bc e0 3d
       -0.09419497 0.046670835 0.16041271 0.10973418
0001f0 22 16 6f 3d f4 3d 09 3c 23 30 73 3a 98 26 86 3e
       0.058370717 0.008376587 0.0009276887 0.2620132
000200 42 23 1d 3d 6b cb d8 3c a9 c0 ea 39 e4 82 38 3d
       0.038363703 0.026464185 0.000447755 0.045046702
000210 72 ba 35 bc 92 a1 28 bc d9 b8 03 3b fc 4e 2b 3d
       -0.011091815 -0.010292428 0.0020099191 0.041823372
000220 6a d3 ea 3c 82 5d 02 3b 7f d4 99 bd f5 53 4d 3e
       0.028665263 0.001989216 -0.075112335 0.20051558
000230 87 a6 3e bd e5 87 06 3d 5a 1b 92 bd a9 23 48 bd
       -0.04654553 0.032844443 -0.07134123 -0.048862133
000240 13 92 57 3e b7 fb 02 3c b7 08 87 bd 03 23 55 3d
       0.21051817 0.007994584 -0.06593459 0.052035343
000250 c1 ae b1 bc 7f 1a 1f 3d db 91 6c 3d 2d e6 a5 3d
       -0.021689774 0.038843628 0.057756286 0.08100543
000260 e0 26 9d b7 d5 ee 3f bd 8b c7 bb 3d 95 67 b8 3c
       -1.8733961e-05 -0.046858627 0.09168919 0.02251033
000270 a6 02 67 be 57 68 6f be 8e 3d b9 be 37 9d 79 be
       -0.22559604 -0.23379646 -0.36179775 -0.24376379
000280 b9 12 30 be ff 53 87 be 6f 1b 26 3d a9 06 22 3e
       -0.17194642 -0.2643127 0.040553506 0.15822853
000290 2d d1 6c 3d 23 e3 ce bd d1 dd 22 bd 81 4d 24 3d
       0.057816673 -0.10101917 -0.03976232 0.040112976
0002a0 6d 2b c4 bc c5 f8 a6 bc da 8a 1b bd 4c cb 15 3e
       -0.023946488 -0.020382294 -0.037974216 0.14628333
0002b0 d5 89 e6 3c 72 66 93 bd 51 c5 4d bc 8d fa 1d bd
       0.028141895 -0.07197274 -0.012559251 -0.038569022
0002c0 f1 dd 69 3d 08 d0 0e be 9a 39 77 bd ad b8 b7 be
       0.057096425 -0.13946545 -0.060357668 -0.35883084
0002d0 87 1e 1d be 36 fb a6 bd c5 c0 2e be 6d 57 25 3d
       -0.15343677 -0.081533834 -0.17065723 0.04036658
0002e0 5b bc 91 3c f8 b8 59 bd 9a bb b3 be cc 49 03 be
       0.01779001 -0.053154916 -0.35104066 -0.1282112
0002f0 40 75 08 be 42 91 c4 bd f7 d3 6d bd 6b 90 80 3c
       -0.13325977 -0.09598018 -0.058063474 0.015693864
000300 ab be 4b 3d a5 e3 11 3d d7 d4 09 3d 2c 21 3d be
       0.049742382 0.03561749 0.033650246 -0.18469685
000310 bd 37 91 bc 35 54 85 3c eb 76 b8 bd e1 4d 1d 3d
       -0.017726773 0.016275505 -0.09007057 0.03840435
000320 1c 73 15 3e ca 1c 76 bd 51 0b 8a be 4e a6 60 bc
       0.14594692 -0.06008605 -0.2696176 -0.013711525
000330 1a 98 9b 3c 9a 70 14 bd cc 91 0f 3d b6 62 54 3d
       0.018993426 -0.036240198 0.035051152 0.05185195
000340 33 2a 6a 3d 8d 9d 8c 3d 7a 60 ae bc ca 5b b8 3c
       0.05716915 0.06865988 -0.021286238 0.022504706
000350 b8 11 a8 bd dc a5 38 be 29 29 ae bd 93 d9 55 be
       -0.082065046 -0.1803202 -0.085039444 -0.20883779
000360 9f 0f 28 bc af d2 8d 3d a6 45 9f bd fb ea d0 3b
       -0.010257631 0.0692495 -0.07776956 0.006375668
000370 1d 37 14 bd 61 43 42 be 6b f2 34 be d2 03 80 bd
       -0.036185373 -0.18971016 -0.176706 -0.06250729
000380 4c 4e 23 3d 08 e8 3c 3d a3 cb cb bb f9 9e 99 bd
       0.03986959 0.04611972 -0.0062193437 -0.07501025
000390 55 5f be bd 28 1e 02 3d c9 03 bd bc 34 73 77 be
       -0.09295527 0.03176704 -0.023073094 -0.2416504
0003a0 1c 7a a3 bd 04 17 30 3e f7 76 2f be 4e 15 32 3d
       -0.07982275 0.1719628 -0.17135225 0.04347735
0003b0 c2 b8 be 3c d1 9d 46 3d 5d c8 5f 3d 37 60 66 bd
       0.023281459 0.04849035 0.05463444 -0.0562441
0003c0 2a fe ed 3c ce d3 8a 3d 86 da 0b 3d c7 c9 7c 3d
       0.029051859 0.0677868 0.034143947 0.061715867
0003d0 82 df 95 bd fc f6 37 3e e0 9f 32 be 1b af a3 3d
       -0.07318021 0.17965311 -0.174438 0.07992383
0003e0 b2 8f 85 3d 0c 3f b0 3d d3 a9 44 be fd 76 2e be
       0.06521548 0.08605775 -0.19205408 -0.17037578
0003f0 47 dd 23 be 9a 1a 85 3c 9a bd bf bd 6b c2 c6 bd
       -0.1600238 0.016248036 -0.093623355 -0.09705051

fc2.bias f4 [2]
000000 c6 4f ad bd b6 b3 8c 3d
       -0.08462481 0.06870215
